halo2/ezkl/examples/mnist/model_truncate.onnx (onnx, 44306 bytes, 20 tensors)

sequential_4/conv2d_18/Conv2D f4 [8, 1, 3, 3]
0	0x3d362507	0.044468906
1	0xbd093a3d	-0.033502806
2	0xbdb970a6	-0.09054689
3	0xbc85db32	-0.016339872
4	0x3eeb3dac	0.4594549
5	0x3e02cd85	0.12773712
6	0xbf00e879	-0.50354725
7	0x3da04d44	0.07827237
8	0xbdd97106	-0.10617261
9	0x3d5d3458	0.054004997
10	0xbe301283	-0.17194562
11	0xbf04a935	-0.5182069
12	0xbd455edc	-0.048186168
13	0x3dedabdb	0.116050445
14	0x3dd686e6	0.104749486
15	0x3d49644e	0.049167924
16	0x3c8df252	0.017327461
17	0x3ec52a35	0.38508764
18	0x3e0c34bf	0.13691996
19	0xbeb001d1	-0.34376386
20	0xbe7ea2c0	-0.24866772
21	0x3e808e82	0.25108725
22	0x3da7e5d0	0.0819813
23	0xbe4e5ecc	-0.2015335
24	0x3e2c950c	0.16853732
25	0x3e10cc1e	0.14140365
26	0x3cb726d8	0.02235739
27	0x3db65528	0.08902961
28	0x3e7d6383	0.24744992
29	0x3e6d630d	0.23182316
30	0xbf01ba09	-0.5067449
31	0xbf090576	-0.5352396
32	0xbebbdf45	-0.3669378
33	0x3e5ef432	0.2177284
34	0x3e86f975	0.26362196
35	0xbdb574c9	-0.088601656
36	0xbe27ba61	-0.16379692
37	0x3e086bdf	0.133224
38	0x3db234e9	0.08701498
39	0x3dc0065d	0.09376214
40	0x3e6b53d4	0.22981197
41	0xbe3595c3	-0.17732911
42	0x3d8d77ec	0.06907639
43	0x3e23b67d	0.15987583
44	0xbeec24b0	-0.4612174
45	0xbe85c326	-0.2612545
46	0xbec1a158	-0.37818408
47	0x3d911b25	0.070852555
48	0x3de024c2	0.10944511
49	0xbe7bbd48	-0.24583924
50	0xbf831585	-1.0240942
51	0x3eaf5fb2	0.34252697
52	0xbc9f02eb	-0.019410571
53	0xbe9e80e0	-0.309577
54	0xbe83124b	-0.25599894
55	0xbc5ff0bd	-0.013668236
56	0xbd59a21c	-0.053133115
57	0xbe909fbb	-0.28246865
58	0x3e9d3162	0.3070174
59	0x3e6fe5e4	0.2342754
60	0xbd1cd398	-0.03828773
61	0x3e258e79	0.1616763
62	0x3ea2baab	0.3178304
63	0xbea0c749	-0.31402043
64	0x3e271da0	0.16319895
65	0x3e948f88	0.29015756
66	0x3deaa3e5	0.11457042
67	0xba64871c	-0.00087176426
68	0x3ecedc5b	0.40402493
69	0x3d790f8a	0.060805835
70	0xbe0b76ad	-0.1361949
71	0xbec0d9f5	-0.37666288

sequential_4/conv2d_18/BiasAdd/ReadVariableOp f4 [8]
0	0xbcbf5450	-0.023355633
1	0xbcded7d0	-0.027202517
2	0xbd9a1a50	-0.0752455
3	0x3d7aacfd	0.06120013
4	0xbd1f4107	-0.038880374
5	0xbc44c232	-0.01200919
6	0xbd8e05fc	-0.06934735
7	0x3cecb9f0	0.028897256

sequential_4/batch_normalization_7/FusedBatchNormV31 f4 [4]
0	0xbfe6bdf3	-1.8026718
1	0xbfd9e9c8	-1.7024469
2	0xc0190bee	-2.3913531
3	0xbfd5fe1d	-1.6718174

sequential_4/conv2d_22/Conv2D f4 [64, 4, 3, 3]
0	0xbe1d2e1a	-0.15349618
1	0xbe92bd6b	-0.2866014
2	0xbe212127	-0.15735303
3	0x3e8f5b06	0.27999133
4	0x3d6de343	0.05807806
5	0x3d794636	0.060857974
6	0x3e780579	0.24220838
7	0x3c960c4d	0.018316412
8	0x3eb00ccc	0.34384763
9	0x3c5c4528	0.0134442225
10	0x3d7190e5	0.058976073
11	0xbea03d9e	-0.3129701
12	0xbe126401	-0.14295961
13	0x3c8d2e2b	0.017233929
14	0xbe094e09	-0.13408674
15	0x3dcf88b1	0.10133494
16	0x3ee63c5d	0.4496793
17	0xbdaff9c7	-0.08592563
18	0xbd6b4a9e	-0.057444207
19	0xbe665008	-0.22491467
20	0x3e103df2	0.1408613
21	0x3e003a3b	0.12522213
22	0x3cb2e185	0.021836052
23	0xbe625e79	-0.22106351
24	0x3eff3d8d	0.49851647
25	0x39043bf7	0.0001261084
26	0xbec1ea1b	-0.3787392
27	0x3e053b0d	0.13010807
28	0x3d83da8f	0.06438171
29	0xbbaed05c	-0.005334897
30	0x3e31d37b	0.1736583
31	0xbd70570c	-0.058676764
32	0xbddb770f	-0.10716068
33	0x3e3d635e	0.18494937
34	0xbee7dc33	-0.45285186
35	0x3cc5368a	0.024073858
36	0x3c5bdde5	0.013419603
37	0x3dad8321	0.084722765
38	0xbe342699	-0.17592849
39	0xbdd836b9	-0.105573125
40	0xbe6251ea	-0.2210156
41	0xbe9e6631	-0.3093734
42	0xbe3f2d7c	-0.18669695
43	0xbe7f7099	-0.24945296
44	0x3d9b9b08	0.07597929
45	0xbe9ebd8c	-0.31003988
46	0xbf1f81f1	-0.6230765
47	0x3d834859	0.064102836
48	0x3b588139	0.0033036007
49	0x3d0b9c2f	0.034084495
50	0x3eaaa2d8	0.33327365
51	0x3d85da88	0.06535822
52	0xbc716801	-0.014734269
53	0xbdb99e84	-0.090634376
54	0xbe45aa69	-0.19303288
55	0xbd4f0c7b	-0.05054901
56	0xbd9f6f0a	-0.07784851
57	0xbd45f651	-0.04833061
58	0x3da99cb7	0.08281844
59	0x3e9088dd	0.28229418
60	0xbe435c0f	-0.19078086
61	0xbeb199d2	-0.34687668
62	0xbe2d62ec	-0.16932267
63	0x3cdb9e43	0.026808864
64	0xbead296f	-0.33820674
65	0xbce25a2e	-0.027630892
66	0x3e1b9d55	0.15196736
67	0xbe4b98b3	-0.19882469
68	0xbed625a5	-0.41825595
69	0x3ea663d2	0.32498032
70	0xbcbc6421	-0.022996964
71	0xbd6c44ba	-0.05768273
72	0xbe0797cc	-0.132415
73	0xbebd163e	-0.36931032
74	0xbe0e7ebb	-0.13915531
75	0x3b52804d	0.003211993
76	0xbd40561a	-0.046957113
77	0x3d9a78e8	0.07542592
78	0x3e403047	0.18768416
79	0xbe50db37	-0.20396124
80	0xbe27d963	-0.1639152
81	0x3d9f2d0e	0.077722654
82	0xbe1d82be	-0.15381905
83	0x3d8793d6	0.06619994
84	0x3ee4c7f3	0.446838
85	0x3e80b308	0.2513659
86	0x3d0d9216	0.034563147
87	0x3e73e014	0.23815948
88	0x3eb9c3e5	0.36282268
89	0xbdd3a387	-0.10333925
90	0x3eb9c0c5	0.36279884
91	0xbdec9782	-0.11552335
92	0xbdbf6ada	-0.09346552
93	0x3e41fa23	0.18943076
94	0x3e050aea	0.12992445
95	0xbead1708	-0.33806634
96	0x3e45a481	0.19301035
97	0x3df8863d	0.12134979
98	0x3e69a0b7	0.22815214
99	0x3e9441cc	0.2895645
100	0xbce31bf7	-0.027723296
101	0x3ed6f66e	0.41984886
102	0x3d9d0efd	0.076688744
103	0x3ee9d904	0.45673382
104	0xbc5de5d5	-0.013543566
105	0x3e33ae58	0.17546976
106	0x3c348a8b	0.011019359
107	0x3d8cd2c7	0.0687614
108	0xbda1fe17	-0.07909792
109	0xbefeb992	-0.49750954
110	0xbe6d36dd	-0.2316546
111	0xbbf7ed68	-0.007566143
112	0xbe432a4a	-0.19059101
113	0x3e71cb0b	0.23612611
114	0xbe862cf9	-0.26206186
115	0xbe015c4a	-0.12632862
116	0xbe1dc37e	-0.15406606
117	0x3e46df7a	0.19421187
118	0x3e00d08b	0.12579553
119	0xbe3c4b48	-0.18388093
120	0x3dbe6707	0.09296995
121	0xba3b8a8c	-0.0007154129
122	0xbc931a02	-0.017956737
123	0xbe680576	-0.22658333
124	0xbd573fa3	-0.052550923
125	0x3e831009	0.2559817
126	0x3e074a4c	0.13211936
127	0x3d3add07	0.045620944
128	0x3ef0fbb5	0.47067037
129	0x3e8e787d	0.278263
130	0xbe8d0e1e	-0.27549833
131	0xbe7d788f	-0.2475302
132	0xbe077430	-0.13227916
133	0xbe5623c9	-0.20912088
134	0xbd95b7a8	-0.0731042
135	0xbe17e34f	-0.14832805
136	0x3ddf72f5	0.10910598
137	0x3e3dbdd9	0.18529452
138	0xbce9a298	-0.028519914
139	0x3e4ecaee	0.20194599
140	0x3e1b3802	0.15158084
141	0xbdcd2517	-0.1001684
142	0x3e78739c	0.24262851
143	0x3ea3badd	0.31978503
144	0xbc9ff5db	-0.019526413
145	0xbdef8132	-0.11694564
146	0xbe14f9a2	-0.14548352
147	0x3dbe87ed	0.093032695
148	0x3e083d4f	0.13304637
149	0xbe9f8c5b	-0.3116177
150	0x3de8654b	0.11347445
151	0x3e482af4	0.19547635
152	0xbc205108	-0.009784944
153	0xbe32a3ee	-0.17445347
154	0x3ea424f5	0.32059446
155	0x3eb9e6ab	0.36308798
156	0xbdea8431	-0.11450995
157	0xbdbf8f87	-0.093535475
158	0xbe3fddd6	-0.18736967
159	0xbe531cad	-0.20616408
160	0xbf0df30b	-0.5544898
161	0x3bccc888	0.006249491
162	0x3d5d2722	0.053992398
163	0xbcc4063d	-0.023928756
164	0x3d86f148	0.065889895
165	0x3c281d32	0.010260867
166	0x3da92eec	0.08260903
167	0x3dc1dc32	0.09465827
168	0x3d0b6122	0.03402818
169	0x3e87da76	0.2653386
170	0xbcc6e8cb	-0.024280926
171	0x3e8dd228	0.276994
172	0x3eb52583	0.35380182
173	0x3f0581b8	0.5215106
174	0x3c970a2a	0.018437464
175	0xbe3db548	-0.18526185
176	0xbddd88c4	-0.108171016
177	0xbcafcae8	-0.021459058
178	0x3d8bc2ee	0.06824289
179	0xbe695186	-0.22785005
180	0xbe6d497f	-0.23172568
181	0x3e371fe7	0.17883264
182	0xbe0cc1fa	-0.13745871
183	0xbd1e2dec	-0.038618013
184	0x3eb1b5fc	0.34709156
185	0xbe050104	-0.12988669
186	0x3c44e958	0.012018524
187	0xbe86595d	-0.26240054
188	0xbec17401	-0.37783816
189	0xbdd4d86e	-0.10392843
190	0x3e4d0747	0.20022307
191	0x3cb86abc	0.022511832
192	0xbe8ff383	-0.28115472
193	0xbe911fe4	-0.28344643
194	0x3dfafba3	0.12255027
195	0x3d2d5346	0.042315744
196	0xbd3f8ea5	-0.046766896
197	0xbe1d32f1	-0.15351464
198	0xbeafd03b	-0.34338555
199	0xbdf52c19	-0.119713016
200	0x3ee323bc	0.443632
201	0x3e8dcab8	0.27693725
202	0x3e78d73f	0.2430086
203	0xbd85d41f	-0.065345995
204	0x3d55d1ae	0.05220192
205	0xbe95d3bc	-0.29263103
206	0xbd840bba	-0.06447549
207	0x3de1a3cf	0.11017572
208	0x3ccf2832	0.025287721
209	0x3dd11f08	0.10210997
210	0x3da776a0	0.08176923
211	0xbd07f552	-0.03319294
212	0xbe3a7a20	-0.1821065
213	0xbe2de635	-0.16982348
214	0xbe0778d6	-0.13229689
215	0xbe048b37	-0.12943731
216	0xbcafd118	-0.021462008
217	0xbd89b7e7	-0.0672453
218	0xbdc6491d	-0.09681914
219	0x3cbd8f28	0.023139551
220	0xbdeed5bc	-0.1166186
221	0xbd64df1d	-0.05587684
222	0xbe16f46d	-0.14741679
223	0x3ce9756f	0.02849838
224	0x3e9b603c	0.30346859
225	0xbd02530a	-0.031817473
226	0x3c85e915	0.016346494
227	0xbcde16c4	-0.027110465
228	0xbe417da7	-0.18895589
229	0x3c8b62aa	0.01701482
230	0xbe4d7c22	-0.20066884
231	0x3e51e463	0.20497279
232	0x3de98689	0.11402614
233	0xbd08af38	-0.033370227
234	0xbe7ab9d8	-0.24484956
235	0xbe5be848	-0.21475327
236	0xbe23f19e	-0.16010138
237	0xbeb59b4c	-0.35470045
238	0xbe2a5e49	-0.1663753
239	0xbdd3eaa2	-0.10347487
240	0x3e0b13ee	0.13581821
241	0x3eabe8c7	0.33576033
242	0x3e77646b	0.241594
243	0xbdb96e4b	-0.0905424
244	0xbdfd7847	-0.12376457
245	0x3ce90910	0.028446704
246	0x3e7f6d2e	0.24943992
247	0xbdd0db33	-0.10198059
248	0x3e325aa3	0.17417388
249	0xbcba5998	-0.0227478
250	0xbeeb597a	-0.45966703
251	0x3bd6416d	0.006538561
252	0x3e28a1be	0.1646795
253	0x3eb54efa	0.35411817
254	0x3eb32168	0.34986424
255	0x3e31a02a	0.17346254

sequential_4/batch_normalization_7/FusedBatchNormV3 f4 [4]
0	0x3f89eb1b	1.0774873
1	0x3fb108c8	1.3830805
2	0x3f9e90f3	1.2387985
3	0x3f7c869f	0.98642915

sequential_4/batch_normalization_4/FusedBatchNormV31 f4 [8]
0	0xbeb1a2ca	-0.3469451
1	0xbdfff798	-0.12498397
2	0xbdde1b5c	-0.10845062
3	0xbf90c978	-1.1311483
4	0xbe8e9ebc	-0.2785548
5	0xbc7ea9e0	-0.015543431
6	0xbe798b18	-0.24369466
7	0xbeee68f8	-0.4656446

sequential_4/batch_normalization_6/FusedBatchNormV31 f4 [16]
0	0xbfb0f419	-1.3824493
1	0x3c621f80	0.0138014555
2	0xbf8eeb23	-1.1165508
3	0xbf0b5d0a	-0.5443884
4	0xbf85e1c8	-1.0459528
5	0x3df61e48	0.120174944
6	0xbf01740c	-0.505677
7	0xbf1f9eba	-0.6235157
8	0xbef7f96a	-0.48432475
9	0xbf767020	-0.9626484
10	0x3d6db5c0	0.05803466
11	0xbf375512	-0.7161418
12	0xbf5c62e4	-0.86088395
13	0xbeb34a52	-0.3501764
14	0xbe43f140	-0.19134998
15	0xbf587a81	-0.84561926

sequential_4/conv2d_22/BiasAdd/ReadVariableOp f4 [64]
0	0x3e0f7cb9	0.14012422
1	0x3e26739e	0.16255042
2	0x3df7f25c	0.12106773
3	0x3bb460c4	0.0055046994
4	0x3dc3252d	0.09528575
5	0x3e71ddf8	0.2361983
6	0xbdaf0cc7	-0.08547359
7	0xbb324832	-0.0027203676
8	0xbe019e49	-0.12658037
9	0xbac1a162	-0.0014772827
10	0xbb861287	-0.004091564
11	0x3da5b9b4	0.08092061
12	0x3d329669	0.043600474
13	0xbdcf033d	-0.101080395
14	0x3d223415	0.03960045
15	0xbc414659	-0.011796557
16	0xbe172d99	-0.14763488
17	0x3dc899a2	0.09794928
18	0x3da189be	0.078876
19	0xbe02e9cf	-0.12784503
20	0x3dc067be	0.09394787
21	0x3d10a61f	0.035314675
22	0xbbcd2ff9	-0.0062618223
23	0x3d5a9c31	0.053371612
24	0x3e1cb697	0.15304027
25	0xbe0149cf	-0.12625812
26	0xbde9f347	-0.114233546
27	0x3d08c2b5	0.033388812
28	0xbd74d632	-0.059774585
29	0xbdbec153	-0.093142174
30	0xbd7d4eaf	-0.061842617
31	0xbcdd7a40	-0.027035832
32	0xbcf8109b	-0.030281356
33	0xbe423c97	-0.18968426
34	0x3d88ad48	0.06673676
35	0x3e2c7ac8	0.16843712
36	0x3dc07abb	0.09398409
37	0xbc467c37	-0.012114576
38	0x3d6463d6	0.055759273
39	0x3c5514cc	0.013005447
40	0x3e4f78e2	0.20260957
41	0xbcf629a9	-0.030049162
42	0xbd6fe2f7	-0.05856606
43	0x3cf242ca	0.029572863
44	0xbc7a192c	-0.0152647905
45	0x3e4521db	0.19251196
46	0xbbb72ea7	-0.005590278
47	0xbdf6bc70	-0.1204766
48	0xbc513a0f	-0.01277019
49	0xbd589e06	-0.052885078
50	0x3d050555	0.03247579
51	0xbe227973	-0.15866642
52	0x3db2a858	0.08723515
53	0x3d9e0cf0	0.077173114
54	0xbc9d76aa	-0.019221622
55	0x3c4cfee5	0.0125119435
56	0x3cb27ba9	0.021787481
57	0xbe3599a7	-0.17734395
58	0x3c6962d2	0.014244752
59	0xbdc756cf	-0.09733354
60	0x3d8e469f	0.06947064
61	0xbb3862d0	-0.0028135069
62	0x3db6ca06	0.08925252
63	0x3e2d8795	0.16946252

sequential_4/conv2d_19/Conv2D f4 [16, 8, 3, 3]
0	0x3e2b33d4	0.1671899
1	0x3dce41ef	0.100711696
2	0x3e5ed97c	0.21762651
3	0xbe087f6e	-0.1332986
4	0x3c98cba9	0.0186518
5	0x3b442669	0.002993012
6	0x3d83cc05	0.06435398
7	0xbd9b10d9	-0.07571573
8	0x3df3e0f7	0.11908143
9	0x3d9ee7dc	0.077590674
10	0x3e8e759c	0.27824104
11	0xbdfca2cb	-0.12335738
12	0x3ec1a98c	0.37824667
13	0x3d7b4499	0.061344717
14	0x3cafc278	0.021455035
15	0x3e152164	0.14563519
16	0x3e0afebb	0.13573734
17	0xbd1685b0	-0.036748588
18	0xbdde65e8	-0.10859281
19	0xbd5a18b1	-0.053246204
20	0x3cf95620	0.030436575
21	0xbe45ebdb	-0.19328253
22	0xbe61b6c1	-0.22042371
23	0x3daa9721	0.08329607
24	0xbea989c4	-0.3311292
25	0xbe9502ab	-0.29103598
26	0x3d602412	0.0547219
27	0x3e5b11b0	0.21393466
28	0x3eb9650b	0.36209902
29	0xbbaba185	-0.0052377605
30	0x3ddc604e	0.10760556
31	0x3e215bdb	0.15757696
32	0xbeac153b	-0.33609948
33	0xbe50d893	-0.20395117
34	0x3d71ab09	0.059001002
35	0xbea0568b	-0.31316027
36	0xbdab320b	-0.08359154
37	0xbef183e9	-0.47170952
38	0x3d16e4ec	0.03683941
39	0x3d452843	0.0481341
40	0xbd9942b4	-0.07483426
41	0x3e27903f	0.1636362
42	0x3e7690c1	0.24078657
43	0xbe0b9b29	-0.13633408
44	0x3e37d32b	0.17951648
45	0xbf0d5dfa	-0.5522152
46	0xbe93e8c0	-0.28888512
47	0xbcd1ec5d	-0.025625402
48	0xbf061a1a	-0.5238358
49	0xbede245a	-0.4338711
50	0x3db91726	0.09037618
51	0xbed87af0	-0.42281294
52	0xbed2d231	-0.41175988
53	0xbdc6bedc	-0.09704372
54	0xbe665337	-0.22492681
55	0x3c9f829c	0.01947146
56	0xbc9302cf	-0.017945675
57	0xbdfee5c1	-0.12446166
58	0x3e6372c6	0.22211751
59	0x3e63bd31	0.2224014
60	0xbdba38ff	-0.090929024
61	0x3e400a8f	0.18754028
62	0x3f04b716	0.51841867
63	0xbcd4a055	-0.025955359
64	0xbddcd38f	-0.10782539
65	0x3e20bb5d	0.15696473
66	0x3e605f44	0.21911341
67	0x3d856011	0.06512464
68	0x3dea765c	0.114483565
69	0xbdacb237	-0.08432429
70	0x3ce35bdc	0.027753763
71	0x3e4e6659	0.2015623
72	0x3e8d1425	0.27554432
73	0xbe0fa5e0	-0.1402812
74	0xbaebbb81	-0.0017984958
75	0xbdd0fba1	-0.102042444
76	0xbebb0f3b	-0.36535057
77	0x3d8a33a5	0.06748132
78	0x3c0e2d6f	0.008677824
79	0xbe9e42f0	-0.30910444
80	0xbd112ae8	-0.03544131
81	0xbe044eaf	-0.1292064
82	0xbe68c232	-0.2273033
83	0xbeee48c5	-0.46539894
84	0x3d19be1d	0.03753482
85	0xbd5c2a9f	-0.053751584
86	0xbee9b5c3	-0.45646486
87	0x3e1917da	0.14950505
88	0x3b4180a5	0.002952614
89	0xbe909a66	-0.28242797
90	0xbd9f74cd	-0.0778595
91	0xbd0c3811	-0.034233157
92	0x3e0ad241	0.13556768
93	0x3e0ffbba	0.1406087
94	0xbb3d60a8	-0.0028896723
95	0xbe9fb8d1	-0.3119569
96	0x3e4af6ba	0.19820681
97	0x3e4d1d0d	0.20030613
98	0x3e01d5db	0.12679236
99	0x3e8484e4	0.25882638
100	0x3e15b1c2	0.1461859
101	0xbe3eb98e	-0.18625471
102	0x3e7155a1	0.23567821
103	0x3d845993	0.064623974
104	0x3e16e08f	0.147341
105	0xbe1dcb15	-0.15409501
106	0xbdb232e2	-0.087011114
107	0x3e6cd321	0.23127414
108	0xbdd95d4c	-0.10613498
109	0xbeba32ed	-0.36366978
110	0xbdc55bd3	-0.09636655
111	0xbea5d63b	-0.32390007
112	0xbd5592f6	-0.052142106
113	0xbe280792	-0.16409138
114	0xbe4c82b6	-0.19971737
115	0xbca9fe65	-0.020751188
116	0xbda1959c	-0.07889864
117	0x3d4cc861	0.049995784
118	0xbe12fc26	-0.14354
119	0xbe69c07e	-0.22827336
120	0x3e40288d	0.18765469
121	0x3ce596f6	0.028026085
122	0xbdf2ae10	-0.11849606
123	0x3ee43b60	0.4457655
124	0x3e1e8489	0.15480246
125	0x3eab3ca5	0.33444706
126	0x3ddbf7a1	0.10740591
127	0xbe50c1ab	-0.20386378
128	0x3eaca1f1	0.337173
129	0xbe6ab828	-0.22921813
130	0xbbe7d925	-0.007075446
131	0x3d6d9371	0.05800194
132	0xbe050a99	-0.12992324
133	0x3e208f05	0.15679558
134	0xbe99a9ae	-0.30012268
135	0x3cebdd8b	0.028792163
136	0xbd6062b3	-0.054781627
137	0x3db28986	0.08717637
138	0xbe696f97	-0.22796474
139	0xbc966433	-0.018358326
140	0x3eaa636a	0.33278972
141	0xbe14e270	-0.14539504
142	0xbc984649	-0.018588202
143	0xbdf81a17	-0.12114351
144	0x3e57d1a8	0.21076071
145	0x3e1100ef	0.14160512
146	0xbeade415	-0.33963075
147	0xbdef5b4d	-0.11687336
148	0xbf00b360	-0.50273705
149	0x3e0cc5db	0.13747351
150	0xbe566935	-0.20938571
151	0x3c7a9725	0.015294825
152	0x3e913c13	0.28366145
153	0x3dcf7ecc	0.101316065
154	0xbf0a675c	-0.54063964
155	0x3d8f82fc	0.07007405
156	0xbe4d9db0	-0.20079684
157	0xbda851a3	-0.08218696
158	0x3df0c474	0.117562205
159	0x3dcdf931	0.10057295
160	0x3ed4f60e	0.41593975
161	0x3e522ca0	0.20524836
162	0xbe7bef55	-0.24603017
163	0x3e13a8f6	0.14419922
164	0xbdbb7b91	-0.09154428
165	0xbe33fcf5	-0.17576964
166	0xbe1ae2e2	-0.15125611
167	0x3ddbca84	0.10731986
168	0x3dd3e164	0.10345724
169	0x3d00b242	0.03142
170	0xbd941ae0	-0.072316885
171	0x3d1fc6f4	0.039008096
172	0xbe112a34	-0.14176255
173	0xbe630d0a	-0.22172943
174	0xbd97fc8c	-0.07421216
175	0x3c0737d6	0.008253058
176	0x3dd7d045	0.10537771
177	0x3df621e9	0.120181866
178	0x3cb3c194	0.021942891
179	0x3db05706	0.086103484
180	0x3cbbed9b	0.022940448
181	0x3e8b02a6	0.27150458
182	0xbe295ddb	-0.1653971
183	0xbde67d16	-0.11254327
184	0xbd81e5df	-0.063426726
185	0xbdfd9d4c	-0.123835176
186	0x3b67ca07	0.003536822
187	0xbd8e7c09	-0.069572516
188	0x3e953499	0.2914169
189	0xbbbe0777	-0.0057992297
190	0xbdfdc9d9	-0.12392015
191	0xbe67aece	-0.22625276
192	0xbe6cd32e	-0.23127434
193	0xbc452779	-0.012033337
194	0x3e3ef024	0.18646294
195	0x3e131fb7	0.14367567
196	0x3e6d4190	0.23169541
197	0xbd4c8704	-0.04993345
198	0xbcf467d8	-0.029834673
199	0xbda490d5	-0.08035437
200	0xbee6a564	-0.45048058
201	0x3e90c2d8	0.28273654
202	0xbe06d397	-0.13166653
203	0xbd87ea6d	-0.0663651
204	0x3d1a955f	0.037740108
205	0xbcef0f54	-0.029182114
206	0x3deec9db	0.116595946
207	0xbca609f3	-0.020268416
208	0x3e42b712	0.19015148
209	0xbf264165	-0.64943534
210	0x3e22e577	0.15907846
211	0xbe33dcaa	-0.17564645
212	0x3e122af8	0.14274204
213	0x3e1941d5	0.14966519
214	0x3d906808	0.070510924
215	0xbbb53b32	-0.0055307383
216	0x3e25ac30	0.16178966
217	0x3e75a639	0.2398919
218	0xbc697ee9	-0.014251449
219	0xbec48f9a	-0.3839081
220	0xbec841db	-0.39112744
221	0xbe0f4ad4	-0.13993388
222	0xbdbdf175	-0.0927457
223	0x3dda149a	0.10648461
224	0x3e3762b5	0.17908747
225	0xbdb485de	-0.08814596
226	0xbd2112ce	-0.039324574
227	0xbee99a0a	-0.45625335
228	0x3c708a69	0.014681437
229	0x3ea21960	0.31659985
230	0x3e22c3bc	0.15894979
231	0xbc79b6a7	-0.015241302
232	0xbe784253	-0.2424405
233	0x3e1799ae	0.14804718
234	0xbe2c10f6	-0.16803345
235	0xbe5c0647	-0.2148677
236	0xbe9b00c7	-0.3027403
237	0xbd8b39f2	-0.067981616
238	0xbdfb2cee	-0.12264429
239	0xbe6e8066	-0.23291168
240	0xbe51537d	-0.20442005
241	0x3e062789	0.13101019
242	0x3ed5ed94	0.4178282
243	0x3dfb2499	0.1226284
244	0x3df7ea3b	0.12105223
245	0x3e37ba94	0.17942268
246	0xbe134735	-0.14382632
247	0x3ead19af	0.33808658
248	0x3da72943	0.08162167
249	0xbe7583d8	-0.23976076
250	0x3ba0b1ce	0.0049040085
251	0x3e19dd50	0.1502583
252	0xbee17851	-0.44037107
253	0xbd9cef55	-0.076628365
254	0x3e35b13e	0.17743394
255	0xbc749b27	-0.014929569

sequential_4/conv2d_21/Conv2D f4 [4, 16, 1, 1]
0	0x3e80b146	0.2513525
1	0x3e9e240c	0.30886877
2	0x3d4d0116	0.050049864
3	0x3f11bc28	0.5692773
4	0xbeedad5a	-0.4642132
5	0x3db73ad2	0.08946766
6	0x3e8af2cf	0.27138373
7	0x3f0b6293	0.5444729
8	0xbe7c6f31	-0.24651791
9	0xbf20c7b0	-0.628047
10	0x3ef197b5	0.47186056
11	0x3d4a0844	0.04932429
12	0xbcbbdecc	-0.022933386
13	0xbe0ac063	-0.13549952
14	0x3e072d3b	0.13200848
15	0xbe77cf40	-0.24200153
16	0x3e2f98c3	0.17148118
17	0xbddf9d2d	-0.10918651
18	0xbec10e8e	-0.37706417
19	0xbdf0dbb3	-0.11760654
20	0xbf098bfe	-0.53729236
21	0x3e57be06	0.21068582
22	0xbd36a838	-0.04459402
23	0x3eb5bb92	0.35494667
24	0x3e70b976	0.23508248
25	0x3e7a405f	0.24438618
26	0xbcab3f64	-0.02090425
27	0x3ee6ff2a	0.4511655
28	0xbedaaf55	-0.42711893
29	0x3e9ea204	0.30982983
30	0xbeca7c85	-0.39548126
31	0xbeb3bdbd	-0.35105696
32	0xbf27f279	-0.6560436
33	0x3e64fc71	0.22361924
34	0xbebc66c3	-0.3679715
35	0xbe06fb0d	-0.13181706
36	0xbebac2b6	-0.36476678
37	0xbe387f8a	-0.18017402
38	0xbe8ba0d9	-0.27271155
39	0x3ef8f1a1	0.48621848
40	0xbdab6496	-0.083687946
41	0x3e05bb9a	0.13059846
42	0x3f03fad6	0.5155462
43	0xbec6ee0f	-0.388535
44	0x3e856302	0.260521
45	0x3e80de50	0.2516961
46	0x3db7cedf	0.089750044
47	0xbea682af	-0.3252158
48	0xbe908527	-0.28226587
49	0x3f20a1e8	0.6274705
50	0x3d81317c	0.063082665
51	0xbe03f9eb	-0.12888305
52	0xbdaf13a9	-0.08548672
53	0x3e9db9ba	0.3080576
54	0x3f0d8f58	0.5529685
55	0xbe2cb79b	-0.16866915
56	0x3f197101	0.59938055
57	0xbd1b75d9	-0.037954185
58	0x3ececed4	0.40392172
59	0x3e877aed	0.26460972
60	0xbe1d48cb	-0.153598
61	0x3f0993e8	0.5374131
62	0x3e10cf6a	0.14141622
63	0x3e9188ac	0.28424585

sequential_4/conv2d_23/Conv2D f4 [10, 64, 1, 1]
0	0xbd7520c1	-0.05984569
1	0xbe8c6eff	-0.27428433
2	0x3e9b41ed	0.30323735
3	0xbe057e71	-0.13036515
4	0xbf3329a9	-0.69985443
5	0xbf1cac00	-0.6119995
6	0x3eaf9f9b	0.34301457
7	0x3f30f35f	0.69121355
8	0xbf317090	-0.6931238
9	0xbb0fbffa	-0.0021934495
10	0xbe5a4472	-0.21315172
11	0x3e66a767	0.22524796
12	0x3eb228c2	0.3479672
13	0xbe46cfc3	-0.19415192
14	0x3e98ea76	0.2986638
15	0x3dcf9ab7	0.101369314
16	0x3d639719	0.05556402
17	0xbefcab2c	-0.49349344
18	0xbe7aec4b	-0.24504201
19	0xbeb066ab	-0.3445333
20	0x3ecf7c4f	0.40524527
21	0x3eeb8d9b	0.46006474
22	0x3d95741f	0.07297539
23	0xbf81dd45	-1.0145651
24	0x3ea76fcc	0.32702482
25	0xbe68f896	-0.22751078
26	0x3e998f35	0.2999207
27	0xbe10ae9c	-0.14129108
28	0xbef8dd0b	-0.48606142
29	0x3e9b2643	0.3030263
30	0x3d47a5b3	0.048742007
31	0xbe76241b	-0.2403721
32	0xbe22186e	-0.15829632
33	0xbcdc86b6	-0.026919704
34	0x3e9e0dba	0.30869848
35	0x3ee29644	0.4425527
36	0x3ecc294c	0.39875257
37	0xbf3b7fde	-0.73241985
38	0xbeb210b1	-0.3477836
39	0xbe239093	-0.1597312
40	0xbe8fdd20	-0.28098392
41	0xbf5c7bd9	-0.86126477
42	0xbe88a8bf	-0.26691243
43	0xbcd7e5eb	-0.02635475
44	0xbcfda4ef	-0.030962436
45	0xbf437964	-0.763571
46	0xbd8c8c94	-0.06862751
47	0xbd701693	-0.05861528
48	0x3e6773e8	0.22602808
49	0xbec1f95b	-0.37885556
50	0xbf0b8e0e	-0.54513633
51	0xbe97492f	-0.29548022
52	0x3e511dfd	0.20421596
53	0xbf10800f	-0.564454
54	0xbe277933	-0.16354828
55	0xbe96ccf0	-0.2945323
56	0xbea4bc24	-0.3217479
57	0x3ce429d6	0.02785198
58	0xbe65410e	-0.22388098
59	0xbeceb8b1	-0.40375283
60	0xbe3b33a2	-0.18281415
61	0x3d891c5e	0.06694864
62	0x3e7a7ce9	0.24461712
63	0xbe837663	-0.2567626
64	0x3db3ed25	0.08785466
65	0xbece7458	-0.40323138
66	0x3ebf939e	0.3741731
67	0xbf0a7b45	-0.54094344
68	0x3ed272ee	0.4110331
69	0x3e58a8ab	0.21158092
70	0xbd85c45e	-0.06531595
71	0xbe229734	-0.15877992
72	0x3cc1e999	0.023670958
73	0x3e4dd02d	0.20098944
74	0xbe4c31f8	-0.19940937
75	0xbe833327	-0.25624964
76	0x3e4ba146	0.1988574
77	0x3dbd381b	0.09239217
78	0xbf2be875	-0.67151576
79	0xbeddee10	-0.4334569
80	0xbe9d8e07	-0.3077242
81	0x3e8bc2d2	0.27297074
82	0x3d8940b7	0.067017965
83	0xbebe7c49	-0.37204197
84	0xbf1469fb	-0.57974213
85	0xbdf1c092	-0.11804308
86	0x3ed5a0e4	0.41724312
87	0x3edbb2b2	0.4290977
88	0x3ecf7b3d	0.4052371
89	0xbf1a6931	-0.6031676
90	0xbeda5f68	-0.42650914
91	0xbf563c82	-0.8368608
92	0xbf2942f4	-0.6611779
93	0xbe9cd3ba	-0.30630285
94	0xbee009f1	-0.43757585
95	0x3c3cba8e	0.0115190875
96	0xbe873b87	-0.26412603
97	0xbe856dcd	-0.26060334
98	0xbe0207ca	-0.12698284
99	0xbd3291bb	-0.04359601
100	0xbe94a36c	-0.2903093
101	0xbe9662e1	-0.29372314
102	0xbd8f9cc6	-0.07012324
103	0x3f0a0f07	0.5392918
104	0x3eaaa13e	0.33326143
105	0xbe676e0f	-0.22600578
106	0xbe69a060	-0.22815084
107	0x3e967908	0.29389215
108	0xbe51e3b9	-0.20497026
109	0xbe9a01fb	-0.30079636
110	0xbf000951	-0.50014216
111	0xbe43016b	-0.1904351
112	0xbf379bb4	-0.7172196
113	0x3c6cacc9	0.014445492
114	0x3e5db6c4	0.21651751
115	0xbd738146	-0.059449457
116	0xbf79b520	-0.97542
117	0x3e99ac5b	0.3001431
118	0xbd3a3772	-0.045463033
119	0x3e9aceb7	0.30235836
120	0x3ef46453	0.4773279
121	0x3ecc79c8	0.39936662
122	0xbdb22bfd	-0.08699796
123	0x3eb9b9ea	0.36274654
124	0xbed2747d	-0.41104499
125	0xbe9d2303	-0.30690774
126	0x3e824bdc	0.254485
127	0x3de1c1cb	0.11023291
128	0xbd0eb11d	-0.034836877
129	0x3bfebb1d	0.0077737705
130	0xbf47eefe	-0.7809905
131	0xbe9814ad	-0.29703274
132	0x3d2ff9b0	0.04296273
133	0xbcac9c88	-0.021070734
134	0x3ec0662e	0.37577957
135	0x3edcce78	0.43126273
136	0x3d41a155	0.047273
137	0xbed013f7	-0.40640232
138	0xbf10c2a5	-0.56547004
139	0xbf02bdd4	-0.51070905
140	0x3e213c7f	0.15745734
141	0x3e8a17fa	0.26971418
142	0x3efc70d4	0.4930483
143	0xbf185af0	-0.5951376
144	0x3e71602f	0.23571847
145	0x3e97848d	0.29593316
146	0xbeabb89a	-0.33539277
147	0xbb373342	-0.0027954136
148	0xbeff0565	-0.49808803
149	0xbe9a244f	-0.30105826
150	0xbe47d687	-0.1951543
151	0xbcf18274	-0.02948115
152	0x3e8c3705	0.27385727
153	0xbec5824c	-0.3857597
154	0x3d88037f	0.06641292
155	0x3e355aa2	0.17710355
156	0x3c95d632	0.018290613
157	0xbeb814f9	-0.359535
158	0x3e8f1544	0.27945912
159	0xbd99cb0e	-0.07509433
160	0x3e5ba026	0.2144781
161	0x3e66a58d	0.2252409
162	0x3e689e35	0.22716601
163	0xbecc5f8e	-0.39916652
164	0x3e32ca54	0.17459995
165	0xbf20ac8c	-0.62763286
166	0xbdb8907b	-0.090119325
167	0xbf17cb29	-0.5929437
168	0xbd4a945b	-0.04945789
169	0xbcb90dd2	-0.022589598
170	0x3e772a5a	0.2413725
171	0x3ee060a9	0.43823746
172	0x3e36cbe9	0.17851223
173	0xbed0f61c	-0.40812767
174	0x3db9417d	0.09045694
175	0x3d9b38af	0.07579171
176	0xbf2a5ce1	-0.6654797
177	0xbe0eeaa4	-0.13956696
178	0x3e459aa6	0.19297275
179	0x3ddb08ae	0.10695015
180	0x3eac04a2	0.33597285
181	0x3e693332	0.22773436
182	0x3ea899c4	0.32929814
183	0x3ea36a8c	0.31917226
184	0xbf6bcef5	-0.92112666
185	0xbe78962f	-0.2427604
186	0x3dafd371	0.08585251
187	0xbd648f3b	-0.055800658
188	0x3ed989c4	0.4248792
189	0xbdb5df32	-0.08880462
190	0xbe965d72	-0.29368168
191	0xbf7daba3	-0.9909002
192	0xbe9fa7b4	-0.31182635
193	0x3edae586	0.42753237
194	0xbe2507ee	-0.16116306
195	0xbe429951	-0.19003798
196	0xbf012a18	-0.50454855
197	0x3d62998b	0.05532221
198	0xbe1884d7	-0.14894424
199	0xbf10c7be	-0.5655478
200	0xbe715e0b	-0.23571031
201	0xbe7a4fee	-0.24444553
202	0xbeb12e53	-0.34605655
203	0x3ef28436	0.47366494
204	0xbef1932d	-0.471826
205	0x3dc3c33b	0.09558722
206	0xbe4805a7	-0.19533406
207	0xbe9a6ec6	-0.30162638
208	0x3e78b960	0.24289465
209	0x3e8c9629	0.27458313
210	0xbf0a86ec	-0.54112124
211	0x3db0cb80	0.086325645
212	0x3e261968	0.16220629
213	0x3e308d8e	0.17241499
214	0x3caa0a01	0.020756723
215	0xbea9dff1	-0.33178666
216	0xbe309edc	-0.172481
217	0xbf190e76	-0.5978769
218	0xbeb6965a	-0.35661584
219	0x3ad78742	0.0016443508
220	0xbde5f9b9	-0.112292714
221	0xbf1d919b	-0.615503
222	0xbe6895e2	-0.22713426
223	0x3ea65d54	0.3249308
224	0xbef14b29	-0.47127655
225	0xbde7680f	-0.112991445
226	0x3d0feb58	0.03513655
227	0x3e9eeabf	0.31038472
228	0xbe1b7029	-0.15179504
229	0x3d8ead1b	0.06966611
230	0x3e161ed7	0.14660202
231	0xbe42e974	-0.19034368
232	0x3ed957d4	0.4244982
233	0x3e35853f	0.1772661
234	0x3ea3fe74	0.3203007
235	0xbdb043c6	-0.08606677
236	0x3e9f9a8e	0.31172603
237	0x3eba2bd9	0.36361578
238	0x3baef4e8	0.0053392537
239	0xbe9480b0	-0.2900443
240	0xbe48a355	-0.19593556
241	0xbf2d664b	-0.6773421
242	0x3e24a23f	0.16077517
243	0xbead3d7f	-0.3383598
244	0xbe868d6f	-0.2627978
245	0x3eddebd8	0.43343997
246	0xbede2537	-0.43387768
247	0x3d8acacf	0.06776964
248	0xbf254424	-0.645571
249	0x3ea4ccbe	0.32187456
250	0x3eb5ffa5	0.35546604
251	0xbed8e16c	-0.42359483
252	0x3b6a32b2	0.0035735783
253	0xbeb5cf60	-0.35509777
254	0xbef1f4c8	-0.47257066
255	0x3d950b8e	0.072775945

sequential_4/batch_normalization_6/FusedBatchNormV3 f4 [16]
0	0x3f140ea6	0.5783485
1	0x3f2b3862	0.6688291
2	0x3f1592ed	0.58427316
3	0x3f24b587	0.6433949
4	0x3f0246bf	0.508892
5	0x3f9820e4	1.1885037
6	0x3f35774b	0.7088515
7	0x3f1042cb	0.5635192
8	0x3f3b338e	0.7312554
9	0x3f228939	0.63490635
10	0x3f0ca98e	0.5494622
11	0x3f0a9c47	0.5414471
12	0x3f0ccfe2	0.55004704
13	0x3ef8ad55	0.48569742
14	0x3f2a0c4d	0.6642502
15	0x3f38e697	0.7222685

sequential_4/conv2d_19/BiasAdd/ReadVariableOp f4 [16]
0	0xbd0f6ba2	-0.035014756
1	0xbd5c063b	-0.05371688
2	0xbe9f3b05	-0.31099716
3	0xbe81e729	-0.25371674
4	0xbf027101	-0.5095368
5	0xbeacedf6	-0.337753
6	0xbdea3a82	-0.11436941
7	0x3af2e8f2	0.0018532558
8	0xbe8e3250	-0.2777276
9	0xbec5eed6	-0.3865878
10	0xbddf98e6	-0.10917835
11	0xbe284049	-0.16430773
12	0xbce01b74	-0.02735684
13	0xbe13b8ad	-0.14425917
14	0xbe43176f	-0.19051908
15	0xbb9bcc96	-0.004754613

sequential_4/conv2d_21/BiasAdd/ReadVariableOp f4 [4]
0	0x3ebad0ea	0.36487514
1	0x3e84392d	0.25824872
2	0x3eeb9c46	0.46017665
3	0x3ed023b6	0.40652245

sequential_4/batch_normalization_4/FusedBatchNormV3 f4 [8]
0	0x4190ce42	18.100712
1	0x414fcbe7	12.987281
2	0x412ab8bc	10.670101
3	0x419a380b	19.277365
4	0x41561177	13.379264
5	0x41d69c1e	26.82623
6	0x40b0c06d	5.5234895
7	0x40f61ec9	7.691258

sequential_4/conv2d_23/BiasAdd/ReadVariableOp f4 [10]
0	0x3d98f475	0.074685015
1	0x3e124036	0.14282307
2	0xbdc8765e	-0.09788202
3	0x3dd0fbec	0.102043
4	0xbdb6ad35	-0.08919755
5	0x3ca2f21d	0.01989084
6	0xbce26469	-0.02763577
7	0xbdbce0e4	-0.09222582
8	0x3d7e394e	0.06206637
9	0xbd8e2805	-0.06941227

sequential_4/batch_normalization_5/FusedBatchNormV31 f4 [16]
0	0xbf438c1d	-0.7638567
1	0xbf35b650	-0.7098131
2	0xbf081dd8	-0.5317054
3	0xbf7d6227	-0.98977894
4	0xbf312996	-0.6920408
5	0xbf4fd5db	-0.8118569
6	0xbf1540b8	-0.5830188
7	0xbf2959d9	-0.6615272
8	0xbefd4216	-0.49464482
9	0xbee6aa62	-0.45051867
10	0xbf4af957	-0.7928671
11	0xbf0641b9	-0.52444035
12	0xbf8e338b	-1.110948
13	0xbf4b5436	-0.7942537
14	0xbf362fd8	-0.71166754
15	0xbf2389d7	-0.638822

sequential_4/conv2d_20/Conv2D f4 [16, 16, 3, 3]
0	0x3c7a08cf	0.015260889
1	0x3e603e6b	0.2189881
2	0x3d9fa771	0.07795609
3	0xbcb4d3ca	-0.022073645
4	0x3d59c292	0.053164072
5	0x3de7f6d6	0.11326377
6	0xbd6dbd1c	-0.058041677
7	0xbdb92169	-0.090395756
8	0x3ea15325	0.31508747
9	0xbe824175	-0.25440565
10	0xbe5fd277	-0.2185763
11	0x3e6fa45c	0.23402542
12	0xbdfdfdf8	-0.12401956
13	0xbe9e43ed	-0.30911198
14	0xbd5cffe8	-0.05395499
15	0xbcccd1e8	-0.025002435
16	0x3c1001a5	0.008789455
17	0xbed2d140	-0.4117527
18	0x3d07af12	0.033125944
19	0x3b3fab8b	0.0029246535
20	0x3e408a22	0.18802693
21	0xbde212cd	-0.11038742
22	0x3c1e08d5	0.00964566
23	0xbe869f36	-0.26293343
24	0xbda0091e	-0.07814239
25	0xbdf0605c	-0.11737129
26	0x3d9683b4	0.07349339
27	0xbe88896b	-0.26667342
28	0x3e9f60b9	0.3112848
29	0x3e7daa51	0.24772002
30	0xbd118b49	-0.035533223
31	0x3dc543af	0.0963205
32	0x3d84edd1	0.064906724
33	0xbe31e9e9	-0.17374386
34	0xbd44a1a4	-0.048005715
35	0xbc9af6d9	-0.018916534
36	0x3c2a3f61	0.010391087
37	0x3cbdf9b7	0.023190362
38	0x3e427107	0.18988429
39	0x3cc4f50c	0.024042629
40	0xbe02e7f5	-0.12783797
41	0x3e017ea9	0.12645973
42	0x3da99773	0.0828084
43	0x3db36d06	0.08761029
44	0xbd3bea11	-0.04587752
45	0xbb5a078a	-0.0033268654
46	0x3e26fe0b	0.16307847
47	0x3ea98c73	0.33114967
48	0xbd067f54	-0.032836273
49	0x3e720b75	0.23637183
50	0xbd10d87c	-0.035362706
51	0x3de096a9	0.10966236
52	0xbb7874e4	-0.003791147
53	0x3db49a4d	0.08818493
54	0x3de53053	0.11190858
55	0x3e2055d4	0.15657741
56	0xbc2ecaa3	-0.01066843
57	0xbdb47b5e	-0.08812593
58	0x3dbe2c63	0.0928581
59	0xbce00f04	-0.02735091
60	0xbab3af30	-0.0013708826
61	0x3ea28c46	0.31747645
62	0x3e00d857	0.12582527
63	0xbbb5ea63	-0.0055516227
64	0xbc1c9ec6	-0.009559339
65	0x3df9aa5a	0.12190695
66	0xbe2d2618	-0.16909063
67	0x3d0c3b77	0.034236398
68	0x3e028ec3	0.12749772
69	0x3dfe8b17	0.12428873
70	0xbe50782a	-0.20358339
71	0xbf060c08	-0.5236211
72	0x3e91742e	0.2840895
73	0xbe1972ff	-0.14985274
74	0xbdf1e954	-0.11812082
75	0xbd4bc887	-0.049751785
76	0xbe33b422	-0.17549184
77	0x3e9d1f5e	0.30687994
78	0x3e535a14	0.20639831
79	0xbd657e42	-0.056028612
80	0xbd90760d	-0.070537664
81	0xbe3a4377	-0.18189798
82	0xbe2010fb	-0.15631478
83	0x3b3db8d7	0.0028949284
84	0xbe3f4836	-0.1867989
85	0xbd997d00	-0.07494545
86	0xbe172f25	-0.14764078
87	0xbe93ddb1	-0.28880075
88	0xbdd3232b	-0.10309442
89	0x3e95bff7	0.2924802
90	0x3da65ba7	0.0812295
91	0x3e81b11f	0.25330445
92	0xbd95b581	-0.0731001
93	0x3e407eb8	0.1879834
94	0x3e82bb91	0.25533727
95	0xbd913c21	-0.07091547
96	0xbe5a77c5	-0.21334751
97	0x3d07cf80	0.03315687
98	0xbd1eea81	-0.03879786
99	0xbe1b5bbf	-0.15171717
100	0xbe3e45c8	-0.18581307
101	0x3de901c2	0.113772884
102	0x3c9e391e	0.019314345
103	0x3d7fcbb1	0.062450115
104	0x3d10072c	0.03516309
105	0xb9b41d18	-0.00034353952
106	0xbd543fb6	-0.051818572
107	0xbbcd273c	-0.0062607806
108	0xbdafdc11	-0.08586896
109	0xbdb29bf0	-0.08721149
110	0x3d3268c2	0.043556936
111	0x3daede2b	0.08538469
112	0xbea7480f	-0.32672164
113	0xbe20965f	-0.15682362
114	0x3d622f43	0.055220854
115	0xbe37bfa9	-0.17944206
116	0xbe89d82a	-0.26922733
117	0xbd1ee46f	-0.03879207
118	0x3e30becc	0.17260283
119	0xbdfd6bba	-0.12374063
120	0xbdb84045	-0.089966334
121	0xbe335ed2	-0.1751664
122	0xbe2d42a3	-0.16919951
123	0xbbb95a30	-0.005656503
124	0x3d6d60a4	0.05795349
125	0x3e35b423	0.17744498
126	0x3e8269ac	0.25471246
127	0x3e98c429	0.29837158
128	0xbd8334a4	-0.06406525
129	0x3d80634a	0.06268938
130	0xbd8b8406	-0.06812291
131	0xbeab32fe	-0.3343734
132	0xbe8e248c	-0.27762258
133	0x3c751ec2	0.0149609465
134	0x3e0e0e92	0.13872746
135	0x3c1aabbf	0.0094403615
136	0xbe10d59c	-0.14143986
137	0xbea7004e	-0.3261742
138	0xbe197e44	-0.14989573
139	0xbdfdfb38	-0.12401432
140	0x3e6f07d5	0.23342831
141	0x3cbe2232	0.023209665
142	0xbf0832bd	-0.5320242
143	0xbcac3e2e	-0.021025743
144	0xbd9818a9	-0.074265786
145	0xbe50ea54	-0.20401889
146	0xbdae1f14	-0.085020214
147	0xbe95476b	-0.2915605
148	0xbd953acf	-0.072866075
149	0x3db536cb	0.088483416
150	0xbe02857d	-0.12746234
151	0x3e0979d5	0.13425381
152	0xbd827497	-0.06369894
153	0xbbaa808f	-0.0052033137
154	0xbe77b7b7	-0.24191175
155	0xbe4229cb	-0.18961255
156	0xbd62012e	-0.055176906
157	0xbbf1553f	-0.0073648985
158	0xbe7a3a8d	-0.24436398
159	0x3c818c0c	0.01581385
160	0x3e192845	0.14956768
161	0x3ddad222	0.10684611
162	0xbe166183	-0.14685635
163	0xbda6a799	-0.081374355
164	0xbd654456	-0.055973373
165	0x3c898ca2	0.016790692
166	0x3e944760	0.28960705
167	0xbf146dcc	-0.57980037
168	0x3d01c540	0.031682253
169	0xbe587d6b	-0.21141593
170	0xbcd1e3ff	-0.025621412
171	0x3d2e4bca	0.042552747
172	0x3cf85142	0.030312184
173	0x3e213a9e	0.15745017
174	0x3de4378e	0.11143409
175	0x3d0e2248	0.034700662
176	0xbed28563	-0.4111739
177	0x3e7d480b	0.24734513
178	0xbe156860	-0.14590597
179	0xbef0e82e	-0.4705214
180	0xbe170f95	-0.14752038
181	0x3d2acb52	0.041697808
182	0x3d97adc4	0.0740619
183	0xbe2ad98e	-0.16684553
184	0xbdacd170	-0.084383845
185	0xbc4a10bb	-0.01233309
186	0x3e41486e	0.18875286
187	0x3c661754	0.014043648
188	0xbe04e260	-0.1297698
189	0xbc2e0708	-0.010621794
190	0x3d6ea097	0.05825862
191	0xbdf94156	-0.12170665
192	0xbd53e411	-0.051731173
193	0xbdc3c04b	-0.09558161
194	0xbe6cb4f0	-0.23115897
195	0xbcb443cd	-0.022004986
196	0xbeb277f6	-0.34857148
197	0xbe4c7cfe	-0.19969556
198	0x3e1424a0	0.14467096
199	0x3ec1dda4	0.3786441
200	0x3c8a51e7	0.016884757
201	0x3e2a487c	0.16629213
202	0x3e385a03	0.18003087
203	0x3d36a374	0.044589475
204	0xbc452e5c	-0.012034979
205	0x3cb3ce03	0.02194882
206	0x3e5f6f00	0.21819687
207	0xbe1da7ae	-0.15395996
208	0xbde8e784	-0.11372283
209	0xbeb1a673	-0.34697303
210	0xbe873a7f	-0.26411816
211	0xbe49c9cf	-0.1970589
212	0x3e2c2622	0.16811422
213	0xbd2e7d1c	-0.042599782
214	0x3e658b62	0.22416452
215	0xbe80cd61	-0.25156692
216	0x3e07193c	0.1319322
217	0xbc1ada08	-0.009451397
218	0xbd152dee	-0.036420755
219	0x3eaecdf1	0.34141496
220	0xbdb0643a	-0.08612867
221	0xbd90e957	-0.07075756
222	0xbe09eb18	-0.13468587
223	0xbe369ca7	-0.17833196
224	0x3df3f0be	0.11911152
225	0x3d13804d	0.03601103
226	0xbdc5915c	-0.09646866
227	0xbdeed2f2	-0.116613284
228	0xbd4e9226	-0.050432347
229	0xbe19917e	-0.14996907
230	0xbeb5aaba	-0.35481817
231	0xbcf50e49	-0.029914038
232	0x3de103f4	0.10987082
233	0x3d758fad	0.059951473
234	0x3cc99668	0.024607852
235	0xbe3dcab5	-0.18534358
236	0xbccf3701	-0.025294783
237	0xbd01881d	-0.03162395
238	0x3df9bd70	0.121943355
239	0x3d91f63e	0.07127045
240	0x3dd8cc8d	0.1058589
241	0x3e618a60	0.22025442
242	0x3deaad8f	0.11458885
243	0x3ee98d8c	0.45615804
244	0x3e12aafd	0.1432304
245	0x3e17056f	0.14748167
246	0x3e878d19	0.26474836
247	0x3d2641ca	0.040590085
248	0x3e4b6f65	0.19866712
249	0xbdc57332	-0.096411124
250	0x3dc418a3	0.095750116
251	0xbe832e75	-0.2562138
252	0xbc11541e	-0.008870153
253	0x3e26d798	0.1629318
254	0x3e2dc592	0.16969898
255	0x3e54f051	0.20794798

sequential_4/batch_normalization_5/FusedBatchNormV3 f4 [16]
0	0x3f125ac6	0.5716976
1	0x3faf7ab1	1.3709317
2	0x3f91f491	1.1402761
3	0x3ff17b38	1.8865728
4	0x3f0ab6b5	0.5418504
5	0x3f41f7be	0.7576865
6	0x3f93dd80	1.1551971
7	0x3f883eb5	1.0644137
8	0x3fab9371	1.340437
9	0x3f9951bc	1.1978068
10	0x401a2e9d	2.409095
11	0x3f86800b	1.0507826
12	0x3faa0611	1.3283101
13	0x3fff20d8	1.9931898
14	0x3f6178b6	0.88074815
15	0x3f92f8dd	1.1482197

sequential_4/conv2d_20/BiasAdd/ReadVariableOp f4 [16]
0	0xbe474e12	-0.19463375
1	0xbd83ab2a	-0.06429131
2	0xbda445d8	-0.08021134
3	0xbd23fb14	-0.04003437
4	0x3c63a1ea	0.013893584
5	0xbed31ca6	-0.41232795
6	0x3eb515eb	0.35368285
7	0x3eb727f6	0.35772675
8	0xbe5606e1	-0.20901062
9	0x3dcd5b43	0.100271724
10	0xbe978610	-0.2959447
11	0xbe253f5d	-0.16137452
12	0x3e1a88a4	0.15091187
13	0x3e3b5da5	0.18297441
14	0xbd363695	-0.044485647
15	0xbdf4e8b6	-0.119584486
